…
Units.GIGABYTES): 29.36\n===============================================================\nInput size (MB): 0.08\nForward/backward pass size (MB): 134.22\nParams size (MB): 20.86\nEstimated Total Size (MB): 155.16\n===============================================================\n\nDiscriminator layers are provided as well.\n\nDiscriminator.\n===============================================================\nLayer (type:depth-idx) Output Shape Param #\n===============================================================\nDiscriminator [64, 1, 1, 1] —\n├─Sequential: 1–1 [64, 1, 1, 1] —\n│ └─Conv2d: 2–1 [64, 64, 32, 32] 4,096\n│ └─LeakyReLU: 2–2 [64, 64, 32, 32] —\n│ └─Conv2d: 2–3 [64, 128, 16, 16] 131,072\n│ └─BatchNorm2d: 2–4 [64, 128, 16, 16] 256\n│ └─LeakyReLU: 2–5 [64, 128, 16, 16] —\n│ └─Conv2d: 2–6 [64, 256, 8, 8] 524,288\n│ └─BatchNorm2d: 2–7 [64, 256, 8, 8] 512\n│ └─LeakyReLU: 2–8 [64, 256, 8, 8] —\n│ └─Conv2d: 2–9 [64, 512, 4, 4] 2,097,152\n│ └─BatchNorm2d: 2–10 [64, 512,", "# Mars Spectrometry - the 8th place\n\nThe goal of [Mars Spectrometry: Detect Evidence for Past Habitability](https://www.drivendata.org/competitions/93/nasa-mars-spectrometry/) was to build a model to automatically analyze mass spectrometry for geological samples of scientific interest in understanding the present and past habitability of Mars.\n\n## Main feat
…
