…
or makes an assumption that the generator output is real or fake at 50% confidence.

So, a DCGAN model stands for the Deep Convolutional Generative Adversarial Network. It extends a plain GAN by using convolutional and convolutional-transpose layers.

The images have shape of (4, 64, 64).

Generator layers are provided here.

Generator.
===============================================================
Layer (type:depth-idx) Output Shape Param #
===============================================================
Generator [64, 4, 64, 64] —
├─Sequential: 1–1 [64, 4, 64, 64] —
│ └─ConvTranspose2d: 2–1 [64, 512, 4, 4] 2,457,600
│ └─BatchNorm2d: 2–2 [64, 512, 4, 4] 1,024
│ └─LeakyReLU: 2–3 [64, 512, 4, 4] —
│ └─ConvTranspose2d: 2–4 [64, 256, 8, 8] 2,097,152
│ └─BatchNorm2d: 2–5 [64, 256, 8, 8] 512
│ └─LeakyReLU: 2–6 [64, 256, 8, 8] —
│ └─ConvTranspose2d: 2–7 [64, 128, 16, 16] 524,288
│ └─BatchNorm2d: 2–8 [64, 128, 16, 16] 256
│ └─LeakyReLU: 2–9 [64, 128, 16, 16] —
│ └─ConvTranspose2d: 2–10 [64, 64, 32, 32] 131,072
│ └─BatchNorm2d: 2–11 [64, 64, 32, 32] 128
│ └─LeakyReLU: 2–12 [64, 64, 32, 32] —
│ └─ConvTranspose2d: 2–13 [64, 4, 64, 64] 4,096
│ └─Tanh: 2–14 [64, 4, 64, 64] —
===============================================================
Total params: 5,216,128
Trainable params: 5,216,128
Non-trainable params: 0
Total mult-adds (Units.GIGABYTES): 29.36
===============================================================
Input size (MB): 0.08
Forward/backward pass size (MB): 134.22
Params size (MB): 20.86
Estimated Total Size (MB): 155.16
===============================================================

Discriminator layers are provided as well.

Discriminator.
===============================================================
Layer (type:depth-idx) Output Shape Param #
===============================================================
Discriminator [64, 1, 1, 1] —
├─Sequential: 1–1 [64, 1, 1, 1] —
│ └─Conv2d: 2–1 [64, 64, 32, 32] 4,096
│ └─LeakyReLU: 2–2 [64, 64, 32, 32] —
│ └─Conv2d: 2–3 [64, 128, 16, 16] 131,072
│ └─BatchNorm2d: 2–4 [64, 128, 16, 16] 256
│ └─LeakyReLU: 2–5 [64, 128, 16, 16] —
│ └─Conv2d: 2–6 [64, 256, 8, 8] 524,288
│ └─BatchNorm2d: 2–7 [64, 256, 8, 8] 512
│ └─LeakyReLU: 2–8 [64, 256, 8, 8] —
│ └─Conv2d: 2–9 [64, 512, 4, 4] 2,097,152
│ └─BatchNorm2d: 2–10 [64, 512, 4, 4] 1,024
│ └─LeakyReLU: 2–11 [64, 512, 4, 4] —
│ └─Conv2d: 2–12 [64, 1, 1, 1] 8,192
│ └─Sigmoid: 2–13 [64, 1, 1, 1] —
===============================================================
Total params: 2,766,592
Trainable params: 2,766,592
Non-trainable params: 0
Total mult-adds (Units.GIGABYTES): 6.71
===============================================================
Input size (MB): 4.19
Forward/backward pass size (MB): 92.28
Params size (MB): 11.07
Estimated Total Size (MB): 107.54
===============================================================
…
